experiments/logs/experiment_hlt_4_117/model_experiment_hlt_4_117_0.pt (torch, 33039 bytes, 8 tensors)

input.weight f4 [51, 140]
-0.0005404745 0.045171015 -0.06948266 -0.062203057 -0.03251118 0.022939235 -0.0009205866 0.06744964
-0.006920204 0.023302078 -0.025195567 -0.017180962 -0.08029918 -0.05653208 -0.035495616 0.0026731528
0.033365898 0.051184982 -0.056894634 -0.036292065 0.030498907 0.070028186 -0.017402485 0.06321596
-0.013561517 0.009289976 0.077064015 -0.07802346 -0.052366022 -0.02036675 -0.03262974 0.07225419
-0.054484226 -0.03933555 -0.05997583 -0.079878256 -0.049450763 0.07297435 0.038042493 0.041042183
0.0046815686 -0.042958505 0.014366641 -0.07865641 -0.060945198 -0.043084536 0.053916875 0.049639035
-0.036956087 -0.002363419 0.054616295 0.08327943 0.034233347 0.010618279 0.055619765 -0.050436817
0.015380835 -0.064966895 -0.057814498 -0.0431216 0.038146887 0.03439543 -0.050657675 0.026270106
0.04687045 -0.010006307 0.004054666 0.019497784 0.05281269 0.081448086 -0.0651815 -0.0318498
0.033913977 0.06915268 0.07219559 0.073756255 0.016106086 -0.07295494 0.008532074 -0.052004308
-0.07827406 0.07602976 0.06373948 -0.08336386 0.016392207 -0.013355629 -0.013295506 -0.038813613
0.032921683 -0.049759492 0.031686384 0.041705422 0.061605416 0.030408567 -0.08515422 -0.055636093
0.04128756 0.01832483 -0.065030865 -0.047819242 0.07974154 0.05767543 -0.037519366 -0.020311128
-0.07991381 -0.00061962183 -0.06285763 -0.0654512 -0.0043187244 0.012870932 -0.034744326 0.048833944
-0.050493956 0.075281866 0.05631141 -0.07227824 -0.02201572 0.0044964915 0.013201357 0.021048658
0.033244897 0.0055254116 -0.041511457 0.040770262 -0.08074675 -0.0493361 -0.020531718 -0.041521642
-0.029169856 -0.06896384 -0.018920569 0.016552212 -0.055225704 -0.005844861 0.058855604 -0.009839524
0.0012735435 -0.0066893566 0.01810537 0.054840878 0.08130287 0.05723495 0.078336746 -0.0034780398
-0.07225433 -0.037082892 0.05856221 -0.0020165395 -0.043297604 -0.06752854 -0.07882663 -0.07004409
-0.01677641 0.0471286 0.04601833 -0.081725284 0.051583882 -0.06630492 -0.017137086 -0.033586983
-0.015590002 -0.011802609 -0.078097135 -0.06859533 -0.008918864 0.0044830614 -0.036623143 0.030577842
-0.07808292 -0.008398566 0.073615514 -0.033570487 0.07664337 0.03080858 -0.07543499 0.053449944
-0.010384332 -0.037250236 0.068456344 -0.06659555 0.008260357 -0.013758908 0.05713438 0.028055385
0.04571897 0.033531144 -0.01764733 -0.01806551 -0.07071867 0.04420218 0.06578544 0.05748944
-0.05984426 0.0037158844 -0.0588075 -0.046747 -0.049651846 0.028601948 -0.050053217 -0.0013702352
0.0035464636 0.058965567 -0.06691572 -0.053422004 -0.043785006 0.06310286 -0.027040564 0.07114782
0.029575687 0.009236835 -0.000997937 -0.017488135 0.010697481 -0.020266443 -6.974002e-05 0.009969868
-0.066328265 -0.04424107 0.06873226 -0.068422325 -0.006291882 0.088573635 0.026483607 0.007436555
-0.06795023 0.045537468 -0.056145385 -0.02420697 -0.02960975 -0.014188204 -0.00021565522 0.06899557
0.010565 0.07522145 0.052607458 -0.054288737 0.037791513 -0.059589602 -0.03546588 0.025043689
0.028263332 0.069089 -0.031442367 0.0056771087 0.048868008 -0.07785472 0.06489029 -0.06973794
0.00026268646 -0.015626904 -0.044866797 0.011173828 0.070065066 -0.024742564 -0.04912603 -0.03159127
00000000: a1ae 0dba 3e05 393d ed4c 8ebd a2c8 7ebd
00000010: 712a 05bd 10eb bb3c 8553 71ba 0923 8a3d
00000020: e1c2 e2bb 00e4 be3c ef66 cebc 17bf 8cbc
00000030: e573 a4bd 2f8e 67bd da63 11bd 1030 2f3b
00000040: aeaa 083d 58a7 513d 590a 69bd fda6 14bd
00000050: d8d8 f93c f06a 8f3d a88f 8ebc 5f77 813d
00000060: 2031 5ebc fc34 183c bdd3 9d3d c4ca 9fbd
00000070: c17d 56bd 2cd8 a6bc c3a6 05bd 01fa 933d
00000080: da2a 5fbd 501e 21bd 37a9 75bd 3697 a3bd
00000090: e28c 4abd 9373 953d 72d2 1b3d d91b 283d
000000a0: d867 993b 42f5 2fbd 0f62 6b3c 9d16 a1bd
000000b0: aca1 79bd 6979 30bd f1d7 5c3d 4d52 4b3d
000000c0: 445f 17bd 97e3 1abb 56b5 5f3d 688e aa3d
000000d0: 4438 0c3d 4af8 2d3c 8dd1 633d d696 4ebd
000000e0: e6ff 7b3c 5d0d 85bd e5ce 6cbd 46a0 30bd
000000f0: e93f 1c3d 39e2 0c3d 6c7e 4fbd 6834 d73c
00000100: 3bfb 3f3d 7ef1 23bc 01dd 843b d1b9 9f3c
00000110: 1f52 583d 41ce a63d e17d 85bd f074 02bd
00000120: 62e9 0a3d ec9f 8d3d 48db 933d 850d 973d
00000130: e9f0 833c 6669 95bd 1dca 0b3c 7802 55bd
00000140: 264e a0bd 7eb5 9b3d d889 823d acba aabd
00000150: f348 863c 91d1 5abc 65d5 59bc 06fb 1ebd
00000160: e3d8 063d 9cd0 4bbd 95c9 013d 4ed3 2a3d
00000170: f655 7c3d 631b f93c 5665 aebd ace2 63bd
00000180: 251d 293d f41d 963c e72e 85bd 1cde 43bd
00000190: 884f a33d 123d 6c3d e8ad 19bd 8663 a6bc
000001a0: daa9 a3bd 1e6e 22ba 80bb 80bd 470b 86bd
000001b0: 1684 8dbb 9ae0 523c 1150 0ebd 1a06 483d
000001c0: c0d2 4ebd 612d 9a3d cba6 663d 9d06 94bd
000001d0: 505a b4bc 4e57 933b 814a 583c 3c6e ac3c
000001e0: cd2b 083d 830e b53b eb07 2abd b8fe 263d
000001f0: 8d5e a5bd a714 4abd 2232 a8bc 9912 2abd
00000200: 9ff5 eebc ea3c 8dbd 4fff 9abc 8198 873c
00000210: 5934 62bd 3f86 bfbb 9312 713d f435 21bc
00000220: 07ed a63a 6432 dbbb b751 943c d4a0 603d
00000230: 1e82 a63d 326f 6a3d 046f a03d d3ef 63bb
00000240: 14fa 93bd 3be4 17bd eede 6f3d eb27 04bb
00000250: d458 31bd 674c 8abd db6f a1bd 4773 8fbd
00000260: af6e 89bc eb09 413d b77d 3c3d 965f a7bd
00000270: 9f49 533d e0ca 87bd 1363 8cbc 8192 09bd
00000280: 356d 7fbc bb5f 41bc 64f1 9fbd b57b 8cbd
00000290: 6d20 12bc a5e6 923b 2602 16bd 627e fa3c
000002a0: f0e9 9fbd 249a 09bc bbc3 963d 3581 09bd
000002b0: 33f7 9c3d 4662 fc3c a97d 9abd 54ee 5a3d
000002c0: 0c23 2abc b493 18bd d732 8c3d 3f63 88bd
000002d0: 7356 073c 0b6d 61bc bd05 6a3d 68d4 e53c
000002e0: d143 3b3d f457 093d 2291 90bc 1ffe 93bc
000002f0: f3d4 90bd 580d 353d 84ba 863d 0c7a 6b3d
00000300: 411f 75bd 3286 733b 22e0 70bd c879 3fbd
00000310: bc5f 4bbd a24e ea3c 9a04 4dbd 7799 b3ba
00000320: c96b 683b e185 713d 1c0b 89bd 08d1 5abd
00000330: e857 33bd 123c 813d 2c84 ddbc f3b5 913d
00000340: b648 f23c 1856 173c 36cd 82ba 4743 8fbc
00000350: 7d44 2f3c d005 a6bc 6341 92b8 a858 233c
00000360: 1dd7 87bd 2036 35bd 80c3 8c3d 0121 8cbd
00000370: 222c cebb 1866 b53d 26f4 d83c 58ae f33b
00000380: 7d29 8bbd 7f85 3a3d b4f8 65bd b24d c6bc
00000390: 2590 f2bc a475 68bc 8221 62b9 8d4d 8d3d
000003a0: d218 2d3c b40d 9a3d eb7a 573d de5d 5ebd
000003b0: 46cb 1a3d 3a14 74bd ac44 11bd 6c28 cd3c
000003c0: 8188 e73c 897e 8d3d b6c9 00bd 0a07 ba3b
000003d0: d229 483d 4c72 9fbd 33e5 843d c4d2 8ebd
000003e0: 2eb9 8939 fe03 80bc 3fc6 37bd 6e12 373c
000003f0: 467e 8f3d ebb0 cabc 6038 49bd d965 01bd

input.bias f4 [51]
-0.007047373 0.0112002455 0.06422622 0.027964942 0.06888735 -0.029049423 0.051625364 -0.015994806
-0.0053300043 0.018059421 0.078900345 0.0013038879 -0.008572292 -0.03432847 -0.05257653 0.04811281
-0.014410243 -0.030820848 0.018691698 0.013062166 -0.013720612 0.072374076 0.051733892 0.018670041
-0.038556244 -0.03685966 0.0724053 0.018307013 -0.07703142 -0.011370633 0.018609602 0.019549204
0.07402264 0.0029805703 -0.008643309 0.059336506 -0.012863085 0.026476003 -0.06277744 -0.0284167
-0.0644168 0.008056555 -0.0652554 0.0628003 -0.036571473 -0.057992194 0.006557648 -0.036387928
-0.051485192 0.060291667 0.028109195
00000000: a6ed e6bb 3c81 373c 0989 833d bc16 e53c
00000010: d014 8d3d 0ef9 edbc 1e75 533d 8a07 83bc
00000020: 51a7 aebb 5af1 933c 8196 a13d 38e7 aa3a
00000030: cc72 0cbc 029c 0cbd 7d5a 57bd f011 453d
00000040: f118 6cbc 017c fcbc 551f 993c b202 563c
00000050: 6bcc 60bc dc38 943d ebe6 533d eaf1 983c
00000060: 27ed 1dbd 28fa 16bd 3b49 943d 97f8 953c
00000070: a6c2 9dbd e44b 3abc 2a73 983c a725 a03c
00000080: 2f99 973d ac55 433b aa9c 0dbc d60a 733d
00000090: b0bf 52bc 34e4 d83c 7591 80bd 24ca e8bc
000000a0: f5ec 83bd a4ff 033c a0a4 85bd 729d 803d
000000b0: f8cb 15bd 3989 6dbd 8ae1 d63b 820b 15bd
000000c0: 23e2 52bd 65f4 763d 4145 e63c

hidden_layers.0.weight f4 [6, 51]
0.03335852 0.06488078 -0.067412205 0.007187008 0.13333102 -0.06610042 0.06306713 0.11552106
-0.003987119 0.11277894 -0.043399844 -0.024706792 0.047393024 -0.026344217 -0.037803307 -0.023614377
0.03933594 -0.071923025 -0.1050832 -0.11578462 0.13680993 0.01414022 0.05943425 -0.13261916
-0.007969028 -0.123224966 -0.01659642 0.12419157 0.10449014 -0.05779467 -0.08570466 -0.111632474
-0.06303751 0.046724368 -0.071895264 0.06845075 -0.04227741 0.123696454 -0.028902885 -0.017625652
0.07543764 0.08957087 0.09936546 0.09379301 -0.13865174 0.06434918 -0.06905289 0.107788324
0.10344757 -0.020709645 0.0458105 0.033551335 0.061044086 0.09282016 0.039042372 -0.049533244
0.003545002 0.020538196 -0.11796852 0.04788695 -0.08871924 0.086376525 0.1276245 0.022600632
0.113672204 0.004987909 0.08859251 0.07006897 -0.112995274 -0.1128086 -0.03833657 0.055846315
-0.024189599 -0.029611334 0.08390359 0.1260216 0.057022627 0.040346734 0.07130176 0.01962844
-0.124791555 -0.13899021 -0.12942272 -0.12267884 0.10223435 -0.009806813 -0.10200697 0.03123282
0.00024340674 -0.083101906 -0.13173941 0.029201247 0.0023291756 -0.052409396 -0.08341782 -0.037725355
0.12119657 -0.11063489 -0.05286037 -0.04598418 0.12640968 0.009537987 0.07692353 -0.006184771
0.018675819 0.092740834 -0.05110531 0.093331575 0.11292747 0.061125718 0.05480349 -0.10003357
0.14068039 -0.090183556 0.057809386 0.050138537 0.013279643 0.030092202 -0.15847318 0.12394285
-0.013237202 0.13466966 0.005334091 -0.07556345 0.09399625 -0.0055986983 -0.11335292 0.042429354
-0.13044992 -0.0835386 -0.118582495 0.021397268 -0.05794588 -0.008373468 -0.11836431 -0.12082541
-0.03788879 0.03062992 0.08493373 -0.035275724 0.12375428 -0.11265669 0.059758544 -0.10756004
0.12769131 -0.03978143 0.08849682 0.032664046 -0.06330717 -0.048989307 -0.040478643 0.10228704
0.10642712 0.14718904 -0.04042335 -0.08243073 -0.08148483 -0.008432998 0.024964875 -0.007116858
-0.09060836 0.039503645 -0.013386978 -0.11912733 -0.03614453 0.0123406695 -0.13842441 0.011726297
0.044446252 0.011379955 -0.018083028 0.008593507 0.03207476 -0.07039079 0.007628474 0.0738673
-0.03610225 0.024103532 -0.15349296 -0.11280884 -0.014471021 -0.046140946 0.11504302 -0.049990263
-0.11423885 0.13005784 -0.08491164 0.13871108 -0.021542761 0.043239314 -0.14828572 0.13155262
0.009039913 -0.078081354 -0.1172557 0.02664411 -0.1356083 0.09156473 0.048077483 0.12552685
0.13762893 -0.09272972 -0.051457662 0.07870814 0.08165043 0.1420952 -0.025408959 0.028806524
-0.0082254205 0.08512195 -0.067303486 0.12557158 -0.061816387 0.0802206 0.111509316 -0.13889493
0.015674315 -0.09775802 0.075873904 0.11409654 -0.06346728 -0.09139057 -0.07452548 0.105374254
-0.019083397 -0.11885665 0.117947154 0.08627394 -0.034666557 0.033110797 0.0205717 0.13508977
0.07908077 0.0429016 0.019086082 0.045991313 -0.11116652 0.066351846 0.03885324 0.016696127
0.07034733 -0.017850531 -0.13139346 -0.12151852 0.13346976 -0.030736739 -0.10593091 0.1336474
-0.08952892 0.13608909 0.12158475 -0.026328418 0.086786106 0.116913244 -0.12503302 -0.06317139
00000000: f2a2 083d 37e0 843d 690f 8abd fe80 eb3b
00000010: ed87 083e a85f 87bd 5729 813d 4e96 ec3d
00000020: 61a6 82bb a5f8 e63d 09c4 31bd e665 cabc
00000030: 301f 423d d4cf d7bc a4d7 1abd f072 c1bc
00000040: b91e 213d 614c 93bd dc35 d7bd 7d20 edbd
00000050: e717 0c3e 62ac 673c 5471 733d 51cd 07be
00000060: 8790 02bc 5f5d fcbd 37f5 87bc 2658 fe3d
00000070: edfe d53d 1bba 6cbd ed85 afbd 919f e4bd
00000080: cf19 81bd 0d62 3f3d d33d 93bd e82f 8c3d
00000090: 142b 2dbd 9154 fd3d bec5 ecbc ac63 90bc
000000a0: 0d7f 9a3d ef70 b73d 1e80 cb3d 8d16 c03d
000000b0: b9fa 0dbe 81c9 833d 9a6b 8dbd 20c0 dc3d
000000c0: 52dc d33d 46a7 a9bc caa3 3b3d 206d 093d
000000d0: 5d09 7a3d 7f18 be3d e5ea 1f3d 5fe3 4abd
000000e0: 4453 683b b83f a83c 7b99 f1bd 1b25 443d
000000f0: 6fb2 b5bd 2de6 b03d ffaf 023e f624 b93c
00000100: f9cc e83d 9d71 a33b fd6f b53d 5280 8f3d
00000110: 116a e7bd 3208 e7bd cf06 1dbd 1bbf 643d
00000120: 4429 c6bc 7893 f2bc a5d5 ab3d ce0b 013e
00000130: 8f90 693d 9e42 253d a806 923d d2cb a03c
00000140: b792 ffbd 7353 0ebe 6487 04be 0b3f fbbd
00000150: 3e60 d13d c1ac 20bc 08e9 d0bd f9db ff3c
00000160: 003b 7f39 5531 aabd b2e6 06be 7437 ef3c
00000170: 15a5 183b 3cab 56bd f6d6 aabd e785 1abd
00000180: e835 f83d 8c94 e2bd 1e84 58bd e859 3cbd
00000190: 8a71 013e 3845 1c3c 158a 9d3d 9fa9 cabb
000001a0: 08fe 983c e8ee bd3d cd53 51bd a024 bf3d
000001b0: 8446 e73d f65e 7a3d a079 603d 66de ccbd
000001c0: 850e 103e 28b2 b8bd 89c9 6c3d 115e 4d3d
000001d0: dc92 593c ec83 f63c cb46 22be c0d5 fd3d
000001e0: d9e0 58bc d8e6 093e 99c9 ae3b 03c1 9abd
000001f0: 1b81 c03d 4975 b7bb 9325 e8bd 67ca 2d3d
00000200: aa94 05be 4916 abbd 61db f2bd 5349 af3c
00000210: a958 6dbd df30 09bc fd68 f2bd 5073 f7bd
00000220: 4731 1bbd 99eb fa3c bcf1 ad3d 477d 10bd
00000230: e272 fd3d 8db8 e6bd 60c5 743d 7048 dcbd
00000240: 83c1 023e daf1 22bd d23d b53d bcca 053d
00000250: 31a7 81bd 03a9 48bd efcc 25bd de7b d13d
00000260: 76f6 d93d b9b8 163e f492 25bd 71d1 a8bd
00000270: 85e1 a6bd 8f2a 0abc 2383 cc3c 8834 e9bb
00000280: e090 b9bd 93ce 213d 0e55 5bbc 08f9 f3bd
00000290: 490c 14bd 8530 4a3c 21bf 0dbe a81f 403c
000002a0: 460d 363d fe72 3a3c dc22 94bc c8cb 0c3c
000002b0: d360 033d 0c29 90bd 47f8 f93b bd47 973d
000002c0: f4df 13bd c574 c53c 422d 1dbe 5208 e7bd
000002d0: dc17 6dbc 4afe 3cbd ad9b eb3d 97c2 4cbd
000002e0: 0ff6 e9bd e22d 053e 27e6 adbd 470a 0e3e
000002f0: 727a b0bc b51b 313d 36d8 17be bbb5 063e
00000300: 251c 143c 1ee9 9fbd c223 f0bd c044 da3c
00000310: e7dc 0abe 4a86 bb3d e5ec 443d 1c8a 003e
00000320: 99ee 0c3e 14e9 bdbd 45c5 52bd bc31 a13d
00000330: 5738 a73d 6781 113e 7326 d0bc a9fb eb3c
00000340: eac3 06bc 6b54 ae3d 69d6 89bd d695 003e
00000350: 2e33 7dbd b34a a43d ff5e e43d 793a 0ebe
00000360: 6c67 803c 5b35 c8bd c763 9b3d 72ab e93d
00000370: 22fb 81bd fb2a bbbd d1a0 98bd 75ce d73d
00000380: c954 9cbc 1e6b f3bd 478e f13d 64b0 b03d
00000390: 85fe 0dbd 309f 073d fb85 a83c f954 0a3e
000003a0: 19f5 a13d 97b9 2f3d 6a5a 9c3c 6361 3c3d
000003b0: 46ab e3bd 7ae3 873d 9324 1f3d 51c6 883c
000003c0: 4312 903d 473b 92bc 028c 06be b4de f8bd
000003d0: 4cac 083e 9dcb fbbc 4ef2 d8bd ddda 083e
000003e0: f05a b7bd f05a 0b3e 6d01 f93d b2ae d7bc
000003f0: eabc b13d 3670 ef3d a808 00be 0060 81bd

hidden_layers.0.bias f4 [6]
0.035630394 -0.045700915 0.11883141 -0.12631463 0.024804996 0.0025363856
00000000: 2df1 113d e230 3bbd e25d f33d 9f58 01be
00000010: d933 cb3c 7d39 263b

hidden_layers.1.weight f4 [7, 6]
0.005038023 -0.04243178 0.18836886 -0.39303994 0.12248772 -0.2820263 0.13618504 -0.027924899
0.051173177 0.21122013 -0.14263324 -0.32099944 -0.18633452 0.3392039 -0.32851607 0.23535095
-0.12478551 0.019960083 0.16549733 -0.14632624 -0.28191268 0.14577004 0.23951256 0.14932342
-0.01158378 0.046754416 0.17033266 0.12123433 -0.19395867 0.30103332 -0.054475904 -0.16225621
-0.13696373 0.075040944 -0.22424556 -0.2786721 0.22075896 0.3219104 -0.41376603 0.3664687
-0.27471474 0.09888587
00000000: 0016 a53b f2cc 2dbd c4e3 403e 883c c9be
00000010: d7da fa3d c065 90be 1774 0b3e c2c2 e4bc
00000020: f79a 513d 174a 583e 730e 12be 0a5a a4be
00000030: 7ace 3ebe 22ac ad3e 4233 a8be d7ff 703e
00000040: 8c8f ffbd 5483 a33c 2278 293e 8cd6 15be
00000050: dc56 90be be44 153e c842 753e 3de8 183e
00000060: e5c9 3dbc 8f81 3f3d af6b 2e3e b449 f83d
00000070: 1a9d 46be 0a21 9a3e 2022 5fbd 7e26 26be
00000080: 3840 0cbe 11af 993d a1a0 65be 1cae 8ebe
00000090: a30e 623e 71d1 a43e 24d9 d3be c9a1 bb3e
000000a0: 69a7 8cbe ad84 ca3d

hidden_layers.1.bias f4 [7]
0.36663577 -0.2614207 -0.17518406 0.119124465 -0.25589228 -0.15214884 -0.325551
00000000: afb7 bb3e efd8 85be 7363 33be 87f7 f33d
00000010: 5004 83be e8cc 1bbe 9fae a6be

out.weight f4 [3, 7]
0.042495552 0.21756768 0.098825276 -0.05573749 0.359108 0.27837235 -0.20796868 0.26250008
-0.094256 0.08650109 0.024950465 0.14208588 -0.20427683 -0.22553818 -0.26023185 -0.21876596
-0.12518284 0.09530975 0.13011071 0.100271836 0.3269868
00000000: d10f 2e3d 10ca 5e3e e864 ca3d ff4c 64bd
00000010: 01dd b73e d286 8e3e bef5 54be 6966 863e
00000020: 4a09 c1bd 7c27 b13d eb64 cc3c f67e 113e
00000030: f22d 51be 7bf3 66be 1c3d 85be 2f04 60be
00000040: ee2f 00be c231 c33d be3b 053e 525b cd3d
00000050: d06a a73e

out.bias f4 [3]
0.28541502 0.29058987 0.25169468
00000000: eb21 923e 32c8 943e 20de 803e
