experiments/logs/experiment_hlt_4_117_expanded/model_experiment_hlt_4_117_expanded_0.pt (torch, 28943 bytes, 8 tensors)

input.weight f4 [51, 120]
0	0xba5a943e	-0.000833813
1	0x3d4308e2	0.047615893
2	0xbd9873f3	-0.074439906
3	0xbd8c0c5a	-0.068382934
4	0xbd134541	-0.035954718
5	0x3cbe87b1	0.023258062
6	0xbb17e203	-0.0023175485
7	0x3d953c66	0.07286911
8	0xbbfae106	-0.0076562194
9	0x3cc97f5e	0.024596866
10	0xbce0d9f6	-0.027447682
11	0xbc9169df	-0.017750679
12	0xbdb271f6	-0.087131426
13	0xbd778660	-0.060430884
14	0xbd19bcce	-0.037533574
15	0x3b662666	0.0035118102
16	0x3d126ac3	0.035746347
17	0x3d6125ab	0.054967564
18	0xbd7ca376	-0.061679326
19	0xbd232898	-0.039833635
20	0x3d05de60	0.032682776
21	0x3d982c57	0.07430332
22	0xbc95c7da	-0.018283773
23	0x3d894235	0.06702081
24	0xbc816fe0	-0.015800416
25	0x3c08a398	0.008339785
26	0x3da71ea6	0.081601426
27	0xbdac7b5d	-0.08421967
28	0xbd6a5316	-0.057208143
29	0xbcb9a663	-0.022662347
30	0xbd123b87	-0.0357013
31	0x3da23463	0.07920148
32	0xbd73d522	-0.05952943
33	0xbd2a6f8a	-0.04161028
34	0xbd81f918	-0.06346339
35	0xbdae5c78	-0.08513731
36	0xbd5b61b3	-0.05355997
37	0x3da12e71	0.07870186
38	0x3d27b6af	0.040945705
39	0x3d35adb5	0.044355113
40	0x3b8ce13c	0.004299311
41	0xbd4683fe	-0.04846572
42	0x3c8171cd	0.015801335
43	0xbdb1525f	-0.08658289
44	0xbd89d49d	-0.06730006
45	0xbd461969	-0.048364077
46	0x3d6682f2	0.056277223
47	0x3d5d80e9	0.054078016
48	0xbd2436b5	-0.040091235
49	0xbb391b11	-0.0028244893
50	0x3d6d9655	0.058004696
51	0x3dba6154	0.09100595
52	0x3d1212b3	0.035662364
53	0x3c53831b	0.012909676
54	0x3d7b35c7	0.061330583
55	0xbd5b4782	-0.053534992
56	0x3c8a2e24	0.016867705
57	0xbd9026df	-0.07038664
58	0xbd80bb8a	-0.0628577
59	0xbd3fbc60	-0.046810508
60	0x3d26f07c	0.040756688
61	0x3d0f991c	0.035058126
62	0xbd5acf53	-0.053420376
63	0x3cd550f0	0.02603957
64	0x3d479492	0.048725672
65	0xbc5198d5	-0.012792786
66	0x3b12a2d8	0.0022374894
67	0x3cb3388e	0.021877553
68	0x3d6a1fff	0.05715942
69	0x3db4eea8	0.088345826
70	0xbd8fb478	-0.070168436
71	0xbd0777bf	-0.033073183
72	0x3d119bd6	0.035549007
73	0x3d9c10f8	0.07620424
74	0x3da26f71	0.07931412
75	0x3da4f679	0.080548234
76	0x3c941359	0.018075632
77	0xbda1cbf4	-0.07900229
78	0x3c0fa9cb	0.008768509
79	0xbd687871	-0.056755487
80	0xbdaf1c63	-0.08550336
81	0x3da3120e	0.07962428
82	0x3d8ed81f	0.069748156
83	0xbdbd7508	-0.092508376
84	0x3c8151f8	0.015786156
85	0xbc889af7	-0.016675455
86	0xbc84503a	-0.016151536
87	0xbd289148	-0.041154176
88	0x3d1197ff	0.035545345
89	0xbd5ab6b4	-0.053396896
90	0x3d09b406	0.03361895
91	0x3d3e23a0	0.046420693
92	0x3d85a83a	0.06526227
93	0x3d0d6c73	0.034527253
94	0xbdb977c1	-0.09056044
95	0xbd728dbb	-0.059217196
96	0x3d3a5b44	0.045497194
97	0x3c9efca8	0.019407585
98	0xbd91092b	-0.07081827
99	0xbd55b946	-0.052178644
100	0x3dae7e44	0.08520177
101	0x3d761625	0.060079712
102	0xbd2403c7	-0.040042665
103	0xbcc81d0b	-0.024427911
104	0xbdb4852b	-0.08814462
105	0xbb49610f	-0.0030728017
106	0xbd8f2706	-0.06989865
107	0xbd8ee0a0	-0.069764376
108	0xbb94bb34	-0.004538918
109	0x3c6b2439	0.014351898
110	0xbd192787	-0.03739121
111	0x3d5d9f68	0.0541071
112	0xbd63a1f8	-0.055574387
113	0x3da9f1d5	0.08298079
114	0x3d7f8cae	0.062390022
115	0xbd9dc541	-0.07703639
116	0xbcbbd4a6	-0.022928547
117	0x3b9250c8	0.0044651963
118	0x3c5f2ffc	0.01362228
119	0x3cb33bc2	0.02187908
120	0x3d0e09b5	0.034677226
121	0xbbb5dd7d	-0.005550085
122	0xbd1ffbc4	-0.03905846
123	0x3cf2b6e1	0.02962822
124	0xbdc64906	-0.09681897
125	0xbd840d4e	-0.0644785
126	0xbce013a5	-0.027353117
127	0xbd35291e	-0.044228666
128	0xbcfd2bf8	-0.030904755
129	0xbd906dff	-0.0705223
130	0xbc9c0496	-0.019045155
131	0x3cbd6b12	0.023122344
132	0xbd7b0149	-0.061280522
133	0xbb12d943	-0.002240733
134	0x3d8ce2ab	0.06879171
135	0xbba08a3a	-0.0048992904
136	0x3bc76822	0.0060854116
137	0xbbf64f3d	-0.00751677
138	0x3c9e1d78	0.019301161
139	0x3d6972b8	0.05699417
140	0x3d9df2f2	0.07712354
141	0x3d3687f9	0.044563267
142	0x3db5575c	0.08854553
143	0xbc9e3d8f	-0.019316463
144	0xbdc0aeb2	-0.094083205
145	0xbd6300ad	-0.055420566
146	0x3d5ad512	0.053425856
147	0x3b014d98	0.0019730087
148	0xbd3d1f3a	-0.046172358
149	0xbd88e3b1	-0.06684054
150	0xbdb7f04f	-0.08981382
151	0xbd92d1ad	-0.07168899
152	0xbccfb6cd	-0.02535572
153	0x3d6ae231	0.05734462
154	0x3d62b73c	0.055350527
155	0xbda5f7ca	-0.08103903
156	0x3d797544	0.06090285
157	0xbd91a227	-0.07111006
158	0xbc8d3700	-0.01723814
159	0xbd106a9f	-0.03525793
160	0xbcb65e0a	-0.022261638
161	0xbceaae03	-0.028647428
162	0xbd9f73cd	-0.07785759
163	0xbdb9ba93	-0.09068789
164	0xbccfc155	-0.025360743
165	0xbc176516	-0.009240409
166	0xbd5117e9	-0.051048193
167	0x3d171ebb	0.03689454
168	0xbda41360	-0.08011508
169	0xba908a9c	-0.0011027637
170	0x3d9fd866	0.078049466
171	0xbcf9bc17	-0.030485196
172	0x3d90d1c4	0.070712596
173	0x3d39898f	0.0452972
174	0xbd9903fb	-0.07471462
175	0x3d8393c4	0.064246684
176	0xbb0f30d0	-0.0021849163
177	0xbd2700cd	-0.040772248
178	0x3d99a997	0.0750305
179	0xbd96764f	-0.07346784
180	0x3bb3fe65	0.0054929727
181	0xbcfcf715	-0.030879537
182	0x3d974acf	0.073873155
183	0x3c3fec5f	0.01171407
184	0x3d024c4a	0.031811036
185	0x3cac5f8d	0.021041656
186	0xbcffaa4c	-0.031209134
187	0xbc7cdef1	-0.015434013
188	0xbd916e5d	-0.07101128
189	0x3d65367d	0.055960167
190	0x3d98f5d4	0.07468763
191	0x3d93a01d	0.072082736
192	0xbd9d7da2	-0.07689978
193	0x3c944d0d	0.018103147
194	0xbd6e15b4	-0.058126166
195	0xbd36cc27	-0.04462829
196	0xbd36c395	-0.044620115
197	0x3cf12c47	0.029440058
198	0xbd6067f3	-0.054786634
199	0xbb7da83a	-0.0038705007
200	0x3b8b928f	0.0042594145
201	0x3d4b19f7	0.04958531
202	0xbd7d8677	-0.061895814
203	0xbd9b7f00	-0.07592583
204	0xbd81e548	-0.0634256
205	0x3d57061b	0.052496057
206	0xbd282505	-0.04105093
207	0x3d9fbd82	0.077998176
208	0x3d120dfa	0.03565786
209	0x3c892a34	0.016743757
210	0x3aafdbd8	0.0013416959
211	0xbc15d1f7	-0.009144298
212	0x3b82beb4	0.0039900187
213	0xbbef05e7	-0.007294405
214	0x3bb53d9e	0.005531027
215	0x3c86b3e6	0.016443204
216	0xbd84454b	-0.06458529
217	0xbd4a588c	-0.04940085
218	0x3d9862fb	0.07440754
219	0xbd994ce3	-0.07485368
220	0xbc11cd85	-0.008899097
221	0x3da8df56	0.08245723
222	0x3d0e0f50	0.034682572
223	0xbc1410b0	-0.009037182
224	0xbdb4e2cb	-0.0883232
225	0x3d0d945b	0.03456531
226	0xbd96ae5e	-0.07357477
227	0xbcc5f5a4	-0.024164982
228	0xbce37344	-0.027764924
229	0xbc1dc685	-0.00962985
230	0x3b280a98	0.002564108
231	0x3da50207	0.08057027
232	0x3c150d90	0.009097472
233	0x3dbc4466	0.091927335
234	0x3d7be01a	0.061493017
235	0xbd552d07	-0.052044895
236	0x3d417ed8	0.04724011
237	0xbd879cdc	-0.066217154
238	0xbd1e597b	-0.038659554
239	0x3cd31885	0.025768528
240	0x3cfc08ba	0.03076588
241	0x3d8bbcd0	0.068231225
242	0xbcdfab3d	-0.027303332
243	0xbb2d26c2	-0.0026420807
244	0x3d39f75a	0.04540191
245	0xbdb84eaf	-0.08999383
246	0x3d86567f	0.065594666
247	0xbd9dd612	-0.07706846
248	0x3aa9df7b	0.0012960279
249	0xbc6c3667	-0.014417267
250	0xbd43b6bc	-0.04778169
251	0x3c5611dd	0.013065782
252	0x3d9c0fb6	0.07620184
253	0xbcdcbfcd	-0.026946926
254	0xbd5a97c5	-0.053367395
255	0xbd060ac3	-0.032725107

input.bias f4 [51]
0	0x3cbb4344	0.022859223
1	0xbd90910e	-0.07058917
2	0xbb8ce3e5	-0.004299628
3	0xbcdc9e6d	-0.026931012
4	0x3cf1d1b7	0.029518945
5	0xbc5a98e5	-0.013342117
6	0xbdbb344b	-0.091408335
7	0xbcf288e3	-0.029606288
8	0x3c878521	0.016542973
9	0x3d53c519	0.05170164
10	0xbd411f99	-0.047149274
11	0xbd650b45	-0.05591895
12	0x3d32f744	0.043692842
13	0xbd83368b	-0.064068876
14	0xbcff074b	-0.031131407
15	0xbdccc4c8	-0.099984705
16	0xbcc4ef52	-0.024039898
17	0xbd8bca08	-0.06825644
18	0x3cb47a53	0.022030985
19	0x3d9913d9	0.07474489
20	0x3d14be64	0.036314383
21	0xbd9a04fd	-0.07520483
22	0x3da3c501	0.0799656
23	0xbdb6d1a7	-0.08926707
24	0xbcc9c025	-0.024627754
25	0x3d57e34c	0.052707
26	0x3d254135	0.04034539
27	0x3d4fd0f8	0.050736398
28	0xbcd40378	-0.02588056
29	0xbda5e6a1	-0.081006296
30	0xbdc18d0d	-0.094507314
31	0x3c013b03	0.007887605
32	0xbda81b90	-0.08208382
33	0xbd70c1a4	-0.05877842
34	0x3d6f674a	0.058448114
35	0xbc9e7c53	-0.019346392
36	0x3cfed812	0.03110889
37	0xbd8a86a3	-0.06763961
38	0x3c4901d9	0.012268507
39	0x3da3b0a4	0.07992676
40	0x3c68a938	0.014200501
41	0x3c64001e	0.013916044
42	0xbd3b6905	-0.04575445
43	0xbd84780a	-0.06468208
44	0x3d69adcf	0.057050522
45	0xbdaf1cd2	-0.08550419
46	0xbb0341ce	-0.0020028236
47	0xbd9ac1a2	-0.07556464
48	0x39c2b5b4	0.00037137943
49	0xbdb69ce9	-0.08916647
50	0x3d171923	0.036889207

hidden_layers.0.weight f4 [6, 51]
0	0x39ac7ac5	0.00032897867
1	0xbdbde8ea	-0.092729405
2	0xbd55b13d	-0.05217098
3	0xbd606648	-0.054785043
4	0xbd75cf02	-0.06001187
5	0xbd1d9b86	-0.038478397
6	0x3c9e6706	0.019336235
7	0xbda53be9	-0.080680676
8	0x3cf56ccf	0.02995911
9	0xbdd79650	-0.10526717
10	0x3dfb747c	0.12278077
11	0xbdb2e7ce	-0.087356195
12	0x3d4796ff	0.048727985
13	0xbdc57a25	-0.09642438
14	0xbdd0a88d	-0.101883985
15	0xbcda5132	-0.026650045
16	0xbd9c0bff	-0.076194756
17	0xbd2337d6	-0.03984817
18	0xbd79226d	-0.060823847
19	0xbd188e84	-0.03724529
20	0xbdde7d97	-0.10863798
21	0x3e0c02b5	0.13672908
22	0x3d9ac432	0.075569525
23	0xbd3d44ad	-0.046208072
24	0x3dc6f2ff	0.097143166
25	0xbd86d875	-0.06584255
26	0xbdeb253f	-0.114817135
27	0x3d3fe290	0.046846926
28	0xbd2ff52a	-0.042958416
29	0x3dd68b20	0.10475755
30	0xbd241d3c	-0.040066943
31	0xbde4791a	-0.11155911
32	0x3df4bbed	0.119499065
33	0x3cde4d0b	0.027136346
34	0x3d4a9a38	0.04946348
35	0xbc5360c0	-0.012901485
36	0xbddb95fb	-0.10721966
37	0x3d2837cd	0.04106884
38	0xbb832941	-0.0040027206
39	0xbdb6b9b9	-0.089221425
40	0x3dabc401	0.08386994
41	0xbe07327a	-0.13202849
42	0xbdc7d988	-0.09758288
43	0xbd0e797c	-0.034783825
44	0xbe045733	-0.12923889
45	0xbdfbb9cf	-0.122912996
46	0xbd35d597	-0.04439315
47	0xbce6270b	-0.028094789
48	0x3dc23d9f	0.094844095
49	0x3d6d3fed	0.057922293
50	0x3e01833f	0.12647723
51	0x3d16f2f2	0.036852784
52	0x3c20c0a8	0.009811558
53	0xbc442d00	-0.011973619
54	0xbd3b3436	-0.04570409
55	0xbdf5bd92	-0.11999048
56	0xbdfc149c	-0.123086184
57	0x3d87255c	0.065989226
58	0xbdb36bb1	-0.08760775
59	0xbd87c45c	-0.066292495
60	0x3d6afe09	0.057371173
61	0xbdc252c8	-0.094884455
62	0x3d533918	0.05156812
63	0xbb720223	-0.0036927543
64	0x3d03ca75	0.0321755
65	0xbd9597c8	-0.073043406
66	0x3dc6cea1	0.0970738
67	0xbddf89ce	-0.10914956
68	0xbe0098d4	-0.125583
69	0x3dc638e2	0.09678818
70	0xbdcec2a0	-0.100957155
71	0x3e0547f6	0.13015732
72	0x3d657514	0.056019858
73	0x3d627091	0.055283133
74	0xbca82a2d	-0.020527923
75	0x3cb8c44e	0.022554543
76	0x3d1099c0	0.035302877
77	0xbd88144c	-0.06644496
78	0x3dc9a68b	0.09846219
79	0x3d941fc6	0.07232623
80	0x3c12ac9c	0.008952286
81	0x3d684d69	0.05671445
82	0xbcb36ea8	-0.021903351
83	0xbd51c5f6	-0.05121418
84	0xbdd2a6c5	-0.10285715
85	0xbd37e1ab	-0.044892948
86	0xbe0184cf	-0.12648319
87	0xbd49a192	-0.04922635
88	0x3da0290e	0.078203306
89	0x3e1072e4	0.14106327
90	0xbe090804	-0.13381964
91	0xbdfdccbc	-0.123925656
92	0x3e015186	0.12628755
93	0xbd7d4bbb	-0.0618398
94	0x3b36b6dd	0.002787999
95	0x3dae6fcd	0.08517418
96	0x3ddfb23e	0.10922669
97	0x3d657147	0.056016233
98	0x3d2be3c8	0.041965276
99	0x3b60d125	0.0034304347
100	0xba7a8adf	-0.00095574366
101	0x3d5891cc	0.052873418
102	0xbe0acbe7	-0.13554345
103	0xbe11534c	-0.14191931
104	0x3de6d5cb	0.112712465
105	0xbdf478ca	-0.11937101
106	0x3d9316f1	0.0718211
107	0x3de12e29	0.109951325
108	0x3de2b749	0.11070115
109	0x3d484799	0.048896406
110	0x3c20390f	0.009779229
111	0x3d298216	0.041383825
112	0x3dadde39	0.08489651
113	0x3c5f62b3	0.013634372
114	0xbda424ab	-0.08014806
115	0x3dbdc885	0.09266762
116	0x3c7ce35a	0.015435064
117	0x3dae2f86	0.08505158
118	0xbdb9f08c	-0.09079084
119	0xbcc1178f	-0.023570804
120	0xbdd0abc2	-0.1018901
121	0xbb851229	-0.0040610027
122	0x3deeaf8b	0.11654576
123	0x3c5cfd36	0.013488105
124	0x3df5ecc6	0.120080516
125	0x3dbd3bb2	0.092399016
126	0xbdbe5453	-0.09293427
127	0x3e0d9b99	0.13828887
128	0x3bf4a20c	0.0074656066
129	0x3de05e66	0.10955505
130	0x3b37277b	0.0027947116
131	0xbcbd4272	-0.023102973
132	0x3e10f8f3	0.14157467
133	0xbde6927c	-0.112584084
134	0x3bb090a5	0.0053883367
135	0xbb87e578	-0.004147228
136	0x3be21c1e	0.0069003245
137	0xbd0ef75a	-0.03490386
138	0x3dd13c98	0.102166355
139	0x3bc2670b	0.005932694
140	0x3d882b9d	0.066489436
141	0x3d3315a0	0.043721795
142	0x3ddf2353	0.108954094
143	0x3d82ab53	0.06380334
144	0xbe0c3dad	-0.13695402
145	0xbddf1d6d	-0.108942844
146	0xbe0a4e9c	-0.1350655
147	0xbe210d49	-0.15727724
148	0xbddea0b2	-0.10870494
149	0x3c0755e8	0.008260228
150	0x3e19d6b7	0.15023313
151	0xbdb25fff	-0.08709716
152	0x3d69b07c	0.057053074
153	0xbd51ad1a	-0.051190473
154	0x3df87937	0.12132495
155	0x3d667e26	0.05627265
156	0x3cf28582	0.029604677
157	0x3de478b7	0.11155837
158	0xbdf14170	-0.11780059
159	0xbe105fbf	-0.14099024
160	0xbda41692	-0.080121174
161	0x3d29ff9c	0.041503534
162	0x3e1b8a52	0.15189484
163	0x3dc1c3bd	0.09461162
164	0x3d157a64	0.036493674
165	0xbd4d3945	-0.050103445
166	0xbdb422b2	-0.0879568
167	0x3e14a64a	0.14516559
168	0xbdebc0c8	-0.115113795
169	0xbdd3756d	-0.103251316
170	0x3d84593c	0.064623326
171	0x3e053fff	0.13012694
172	0x3d5b08bb	0.053475123
173	0x3c02b7b4	0.007978369
174	0x3be0dbfe	0.0068621626
175	0x3c8d2712	0.017230544
176	0xbd612400	-0.054965973
177	0x3e06c43f	0.131608
178	0x3e08aa0b	0.13346116
179	0xbd54680c	-0.05185704
180	0x3dddd26b	0.1083115
181	0x3c046caf	0.008082553
182	0xbdc81459	-0.09769506
183	0xbc7ea9e9	-0.015543439
184	0xbc6e388e	-0.014539851
185	0x3dddcc85	0.10830025
186	0xbbf70964	-0.0075389612
187	0xbd22761c	-0.03966342
188	0xbdfda284	-0.12384513
189	0x3dccaf2e	0.099943504
190	0x3d92fdf8	0.07177347
191	0x3b63391b	0.0034671489
192	0x3bfae4b2	0.007656657
193	0xbc9daf07	-0.019248499
194	0x3c00c348	0.007859059
195	0x3e0d1d03	0.13780598
196	0xbd12d887	-0.035851028
197	0x3cb1d3a1	0.021707358
198	0xbdc90cdd	-0.098169066
199	0x3cbd7f1c	0.0231319
200	0xbd9afea5	-0.07568101
201	0xbd6f8fbb	-0.05848668
202	0xbd98c278	-0.07458967
203	0x3e05d974	0.13071233
204	0x3dc0d6e1	0.09415985
205	0xbd7deba8	-0.061992317
206	0xbcf48861	-0.029850187
207	0x3d3fad3f	0.04679608
208	0x3d560d23	0.052258622
209	0xbd826299	-0.06366462
210	0x3d798d66	0.060925864
211	0x3cc2cf24	0.023780413
212	0x3da07256	0.07834308
213	0xbda50601	-0.08057786
214	0xbdbb040d	-0.09131632
215	0x3d88e92a	0.066850975
216	0xbae12691	-0.0017177631
217	0xbd72ce0d	-0.059278537
218	0x3ddf0f4d	0.1089159
219	0xbc7ea4ef	-0.015542253
220	0xbdbd9d62	-0.09258534
221	0xbc8dc0c7	-0.017303837
222	0xbd8b3a76	-0.0679826
223	0xbd5292f7	-0.051409688
224	0xbdebc325	-0.1151183
225	0x3dde2f3b	0.10848852
226	0x3dfc988a	0.12333782
227	0xbdf67225	-0.1203349
228	0x3db2f3b0	0.08737886
229	0x3d2bb6b9	0.041922305
230	0xbd673816	-0.056449972
231	0xbd2e6256	-0.04257425
232	0x3c95e8a8	0.018299416
233	0x3cf7932f	0.03022155
234	0x3dfebac8	0.124379694
235	0x3e070876	0.13186821
236	0x3c0b72dd	0.008511272
237	0x3e0a7e1d	0.13524671
238	0xbda84268	-0.08215791
239	0x3b034999	0.0020032881
240	0xbdf066ac	-0.11738333
241	0x3d8eeb17	0.069784336
242	0x3cf7ff0f	0.030272989
243	0xbdb61860	-0.08891368
244	0xbde33bd9	-0.110953994
245	0xbcc5d913	-0.02415136
246	0xbd5c60b1	-0.05380315
247	0xbd64c185	-0.055848617
248	0xbdfb1955	-0.12260691
249	0xbdbffb32	-0.093740836
250	0x3df0414c	0.117312044
251	0xbd884080	-0.066529274
252	0x3d79b048	0.06095913
253	0x3c177eb8	0.009246521
254	0xbca697ff	-0.02033615
255	0x3d59846e	0.05310481

hidden_layers.0.bias f4 [6]
0	0x3cf2d4ff	0.02964258
1	0xbd8ebef4	-0.06970015
2	0xbe052804	-0.13003546
3	0xbd420c6d	-0.04737513
4	0x3d31ce33	0.043409538
5	0x3b74490e	0.003727499

hidden_layers.1.weight f4 [7, 6]
0	0xbe2592c8	-0.16169274
1	0x3e0a1769	0.13485493
2	0xbde79efe	-0.11309622
3	0xbea1f806	-0.3163454
4	0x3e202833	0.15640335
5	0xbe06935c	-0.1314215
6	0xbdd4eb6b	-0.10396465
7	0x3e9a9f00	0.30199432
8	0x3ea16381	0.31521228
9	0xbecb0042	-0.39648634
10	0x3ebef3f0	0.37295485
11	0x3eab5648	0.33464265
12	0xbe95b1db	-0.29237255
13	0xbecc55b1	-0.39909127
14	0xbea780b0	-0.32715368
15	0xbdd9e953	-0.10640206
16	0xbcc907a2	-0.024539772
17	0x3dce73c1	0.10080672
18	0x3da70d5a	0.081568435
19	0x3da9812c	0.08276591
20	0xbeade395	-0.33962694
21	0x3ec79851	0.38983396
22	0x3ea3703e	0.31921571
23	0x3e5b9ec6	0.21447286
24	0x3db7e631	0.089794524
25	0xbe6d450b	-0.23170869
26	0x3d18490f	0.03717905
27	0xbe9484dc	-0.29007614
28	0x3ec4bb04	0.38423932
29	0xbeb84006	-0.35986346
30	0x3eae39c8	0.3402846
31	0x3ec076ef	0.3759074
32	0xbe47a0b5	-0.19494899
33	0xbebc6da1	-0.3680239
34	0x3e0f2332	0.1397827
35	0xbe96f013	-0.29480037
36	0xbec29ebb	-0.38011727
37	0xbe7eb944	-0.2487536
38	0x3e936587	0.28788397
39	0xbe83584f	-0.25653312
40	0xbe2aea04	-0.16690832
41	0xbe20f2a3	-0.15717559

hidden_layers.1.bias f4 [7]
0	0x3e8ddc6a	0.27707225
1	0x3df033f0	0.11728656
2	0x3e70c026	0.23510799
3	0xbcff8eac	-0.031195961
4	0xbe800086	-0.250004
5	0x3e2738f8	0.16330326
6	0x3e309d52	0.17247513

out.weight f4 [3, 7]
0	0x3ea66cb1	0.325048
1	0xbeaf4800	-0.3423462
2	0xbe6ca879	-0.23111142
3	0x3e716cb2	0.2357662
4	0x3d1ab8b5	0.037773807
5	0x3e6380ef	0.22217153
6	0xbd95fad1	-0.0732323
7	0x3eb5eaf9	0.35530832
8	0x3e1d0de1	0.15337326
9	0xbe496a64	-0.19669491
10	0xbe29525d	-0.16535325
11	0x3e31c6fc	0.17361063
12	0x3ba20e97	0.004945587
13	0xbe5066a0	-0.20351648
14	0xbe45ddd4	-0.19322902
15	0x3de10553	0.10987344
16	0x3e4352b6	0.1907452
17	0x3eb5bae9	0.35494164
18	0xbe31fc03	-0.17381291
19	0xbe55a45a	-0.20863476
20	0xbe760e73	-0.2402895

out.bias f4 [3]
0	0xbe3fdf6b	-0.18737571
1	0x3e92eb5f	0.286952
2	0xbe2b1bcd	-0.16709824
