experiments/logs/experiment_hlt_4_117_expanded_he/model_experiment_hlt_4_117_expanded_he_0.pt (torch, 28943 bytes, 8 tensors)

input.weight f4 [51, 120]
000000 c4 d4 a9 3d bb 31 1d 3e 5f 8b 09 be 92 55 53 bc
       0.08292535 0.15351002 -0.13432072 -0.0128988195
000010 f1 10 fc 3d 1d fb 2f 3e 5d 3e 07 bd c3 b0 4a bd
       0.12307919 0.17185636 -0.03301846 -0.04948498
000020 09 0c 72 3d 07 11 4b 3e fa d6 74 be 43 7a 28 3d
       0.05909351 0.19830714 -0.23910132 0.041132223
000030 17 ff 0e 3d a6 9c af bb a5 4b 24 be 24 de 96 3d
       0.03491124 -0.00535925 -0.16044481 0.07366589
000040 d7 31 93 3d 8c 8c 67 bd 4e 30 a7 bd 26 57 08 3d
       0.071872406 -0.05653052 -0.0816351 0.033286236
000050 6f 71 6a 3e ec 34 7d 3c 24 97 5a bd d3 d5 07 be
       0.22894834 0.015454512 -0.053366795 -0.13265161
000060 86 db 13 3e 18 27 ae 3d 2d e5 39 bc df ce 92 3b
       0.1443921 0.0850355 -0.011346144 0.0044802274
000070 cc be 90 3d 35 98 b4 3c 2e 20 e0 3c 07 38 89 3e
       0.070676416 0.022045234 0.027359094 0.26800558
000080 51 16 37 3e 1a 9f 61 3c 58 93 c3 3e ac e5 34 3d
       0.17879607 0.013770843 0.38198352 0.044164345
000090 71 02 2a 3c f2 08 79 be 65 9b 31 3e 23 c5 f5 3a
       0.010376559 -0.24319819 0.17344435 0.0018750768
0000a0 3f 2f 3f be 21 cf 64 3e 05 e2 5c bd 2c 0a 5f 3c
       -0.18670367 0.22344638 -0.053926487 0.013613265
0000b0 21 db e6 bd 0c c8 e6 3c bb 2c 87 3d e6 93 99 bd
       -0.11272264 0.028171562 0.066003285 -0.074989125
0000c0 b8 55 fa bc 38 2e 19 be 0d 3e 1d bd a7 93 60 bd
       -0.030558452 -0.14959037 -0.038389254 -0.054828312
0000d0 77 fb b1 3d 81 06 da 3d a6 29 b3 3d d0 3a 56 3e
       0.08690541 0.10645772 0.08748178 0.20920873
0000e0 ec 15 d1 bd 62 12 17 3b b8 7e ef bd aa c3 dd 3d
       -0.102092594 0.0023051728 -0.116940916 0.108283356
0000f0 e4 f4 9f 3d df 48 28 3e b4 ac 02 3e cd f8 fe 3d
       0.07810381 0.16434048 0.12761194 0.12449799
000100 51 df 0b 3d eb 3f ea 3d 9c 8e 61 bd 3c 6e d8 3d
       0.034148518 0.11437973 -0.055067644 0.105679005
000110 48 d5 0b 3e 92 e5 89 be 51 e6 15 be b5 8c 51 bd
       0.13655579 -0.2693296 -0.1463864 -0.05115958
000120 0c 3a 2c be 5d 77 8a 3d 21 3c 37 3b 04 a5 3e be
       -0.16819018 0.06761048 0.0027959424 -0.18617636
000130 42 03 3f be df e8 db bd 89 41 11 3d 63 ae 08 be
       -0.18653587 -0.10737776 0.03546289 -0.13347773
000140 49 7d 25 3e b4 a7 df bc 91 38 cc bc f0 65 91 be
       0.16161074 -0.027301647 -0.024929317 -0.28398085
000150 18 73 dc 3b f8 82 a6 be 93 6b c4 3d 8d f3 14 3d
       0.0067275874 -0.32521796 0.09590831 0.03636508
000160 2d 35 6a bd 54 5a 1b 3e 78 9f 88 be c5 ef 09 3e
       -0.05717962 0.15171176 -0.26684165 0.13470371
000170 f1 b4 b2 3d dd 19 91 3d ae ae 34 bd b0 1d 2b be
       0.08725918 0.07085011 -0.0441119 -0.16710544
000180 b9 5e 9e bd c5 db a2 be c6 4c 38 be 91 48 95 be
       -0.07732911 -0.31808296 -0.17998037 -0.29156926
000190 07 a2 ab 3e f9 81 02 be 1f 5b 89 3e d1 c0 ab bd
       0.33522055 -0.12744893 0.26827332 -0.08386386
0001a0 09 82 69 bd 37 c3 3b bd 73 43 bc bc e8 fc 9a 3d
       -0.057008777 -0.04584047 -0.022981381 0.07567769
0001b0 31 82 bf 3d d3 93 e6 bc c3 4d 80 bd 47 7a d6 bd
       0.09351004 -0.02814666 -0.06264832 -0.10472541
0001c0 1e bd 76 3c e7 99 e4 3d 2b 45 d6 bd d4 30 3a 3e
       0.0150597375 0.11162167 -0.104624115 0.18182689
0001d0 de f5 f2 bc 4e 4b 25 3d 44 78 3c bc 76 cc 2f be
       -0.029658254 0.04035502 -0.011503283 -0.1716784
0001e0 99 39 0d bd fc a2 0b be 9e 29 82 3d 4e e2 74 bd
       -0.034478758 -0.13636392 0.06355594 -0.059786133
0001f0 fa a6 21 3c bf 8f 2c 3e 2e 92 8c bd ef 45 b1 bc
       0.0098664705 0.1685171 -0.06863819 -0.021639792
000200 3f 78 5a bd df ed 67 3e e7 fb 05 3e d2 3e 37 be
       -0.05333733 0.22649334 0.13084374 -0.17895058
000210 9e a3 07 3e 71 5d 5d b8 82 03 96 3e a9 27 9c 3d
       0.13246009 -5.277753e-05 0.2929955 0.07624752
000220 45 b3 d6 bc c7 06 98 3d 22 e6 a9 be 70 3f fd bd
       -0.02620853 0.07423168 -0.3318339 -0.12365615
000230 ad b1 b0 bc d1 bb 49 bd a3 0a 16 3d cd 79 56 bd
       -0.021569097 -0.04925138 0.036631238 -0.052362252
000240 b2 9b 1b 3d d1 9f b1 bd 34 1d aa bd 49 f5 ae bd
       0.03799028 -0.08673061 -0.08306351 -0.08542878
000250 91 97 f9 b9 aa 8e 81 bd 95 64 9f 3d 5b 71 ae 3d
       -0.00047605907 -0.06326039 0.077828564 0.085177146
000260 ae e5 44 bd f1 d1 2c bd 07 a5 4a be 5a 75 fc bc
       -0.048070602 -0.042192403 -0.19789515 -0.030817676
000270 a8 64 3d 3e dc 51 1e 3e 16 96 05 be 63 83 31 3d
       0.18495429 0.15460914 -0.13045534 0.04333819
000280 73 ba e0 3d 30 a7 0b bd 40 ef a4 3d 8e e4 0e be
       0.10973062 -0.03409499 0.08053446 -0.13954374
000290 39 82 f8 bd 99 5b ed bd 8e 3d 59 3e 4d 60 17 3e
       -0.12134213 -0.115897365 0.21214887 0.1478283
0002a0 b2 0d 95 bc 9d bf 9c ba e6 45 59 bc e2 a8 a6 bd
       -0.018195007 -0.0011958961 -0.013261294 -0.081376806
0002b0 fb a3 e3 3b 0e 7d 13 be af 5a 2b 3e 3e b9 bd bd
       0.006947038 -0.14403173 0.16733812 -0.09263848
0002c0 3e 34 87 be b3 07 43 3d 54 66 12 3d d1 85 76 be
       -0.26407045 0.047614764 0.03574212 -0.24074484
0002d0 b9 02 e5 bd d8 30 a5 3b 29 e3 c9 bd 24 78 ce bd
       -0.1118216 0.005041223 -0.098577805 -0.10081509
0002e0 52 ea 3e 3e 78 68 99 bb 47 13 b1 3d 09 e6 ed bd
       0.18644074 -0.004681643 0.08646255 -0.11616141
0002f0 03 f1 0e be d9 41 e5 3d bc dc 9a 3c 22 65 90 3d
       -0.13959126 0.111942 0.018904082 0.070505396
000300 4d d7 5e be 8e 87 80 3e 32 82 9a bd 12 48 9d bd
       -0.21761818 0.2510342 -0.07544364 -0.07679762
000310 d2 7e b1 3c 55 67 2a 3c d5 b2 8a 3e 8f 5d 88 be
       0.021666918 0.010400613 0.27089563 -0.2663388
000320 b5 26 1c be fc 94 77 3d dc c6 fc bd c0 6e 72 3d
       -0.1524914 0.060444817 -0.12342617 0.05918765
000330 55 c9 a6 bd 28 4d cb bd 0b fd 0e be 9f 0d 81 bd
       -0.0814387 -0.09926826 -0.13963716 -0.06301426
000340 e0 46 29 3c fd ac 06 be 3b 2a 0c be 96 bf 8f 3c
       0.010331839 -0.13151927 -0.13687985 0.01754741
000350 9f 3e 8b 3d 00 f8 d3 bd 7a fb ed bd 23 91 a0 be
       0.067990534 -0.103500366 -0.11620231 -0.3136073
000360 10 cf 29 3e ff 9a 99 bd a8 e1 4c be 5d 5d 83 be
       0.16582894 -0.07500266 -0.20007956 -0.25657168
000370 f6 2c 4c 3e 31 73 9f 3d 3c 00 2a 3c 55 5f cb 3d
       0.19939026 0.07785643 0.010376032 0.099302925
000380 61 2d 1a bb 51 2d 4b be 10 b1 7c 3c 77 58 b5 bd
       -0.0023525583 -0.19841506 0.015423074 -0.08854764
000390 07 1f da bc 8e 18 89 3e 6d 9f ee 3d 7d 50 92 bd
       -0.026626123 0.26776546 0.11651502 -0.07144258
0003a0 7d 5c 40 3d 41 d1 26 3c 5b 6f 8a 3d 6f 63 a9 bd
       0.046963204 0.010181726 0.067595206 -0.082709186
0003b0 80 95 38 be d1 c9 37 bd 8a d1 69 bd 95 4d 7c 3d
       -0.1802578 -0.0448702 -0.057084598 0.061597425
0003c0 23 7c 22 be a5 f1 04 3e 6d 2a 12 be ce 12 3c 3a
       -0.15867667 0.12982805 -0.14273997 0.0007174433
0003d0 d2 f1 97 be e5 ae 02 3e 0f 01 23 be b3 04 cc bd
       -0.29676682 0.1276203 -0.15918373 -0.09961834
0003e0 32 d5 fe 3d 53 f8 e1 bd 07 ea 1e 3e d0 ca cf bd
       0.124430075 -0.11033692 0.15518962 -0.10146105
0003f0 18 78 24 3e 95 87 c1 3d 28 1d 2b 3e 46 19 76 be
       0.16061437 0.09449688 0.16710341 -0.24033079

input.bias f4 [51]
000000 77 1f c5 3c 7f 56 c2 bd d9 92 26 bc e6 40 2d bd
       0.024062855 -0.09489154 -0.010166847 -0.04229822
000010 b7 c0 96 3c 16 e5 59 bd 05 b6 cb bd d9 df 4b bc
       0.01840244 -0.05319699 -0.09946827 -0.012443506
000020 9e 31 29 3c 09 ce 2c 3d dd cc 92 bd a8 0a 6a bd
       0.010326771 0.042188678 -0.07167981 -0.05713907
000030 4f 5d 26 3d 9c c7 76 bd b4 fe 0d bd 56 6f 9e bd
       0.04061633 -0.060248956 -0.034666732 -0.077360794
000040 42 e0 7d bc 69 42 90 bd 8d cd 8a 3c c9 ad 9d 3d
       -0.015495362 -0.07043917 0.016943717 0.076991625
000050 0c 33 6e 3d 4b ab 88 bd 9e 03 a1 3d b3 e2 88 bd
       0.05815415 -0.066732965 0.07862018 -0.066838644
000060 06 c5 bd bc 5f a0 77 3d 51 77 3c 3d a1 3b 83 3d
       -0.023165237 0.060455676 0.046012226 0.06407858
000070 ff 13 22 bd b3 2c ab bd e4 6a e0 bd 21 6b b4 3c
       -0.03956985 -0.08358135 -0.10957888 0.02202374
000080 62 75 ad bd a5 f2 55 bd 59 83 a9 3d c2 22 e4 bb
       -0.084696546 -0.052233357 0.08277006 -0.0069621513
000090 f4 d9 b5 3c 4e c1 bb bd 12 f0 bf bb 63 fd 99 3d
       0.022198655 -0.09167729 -0.005857476 0.07519033
0000a0 8f 62 a8 3b 17 68 f3 3c 3a 94 62 bd b1 0b 67 bd
       0.005138702 0.02971272 -0.05531714 -0.056407634
0000b0 21 21 2d 3d b5 83 a2 bd 9f 25 c9 bc 74 93 88 bd
       0.042267922 -0.079352774 -0.024554072 -0.066687495
0000c0 19 62 80 3c 6f dd b3 bd bc e6 ae 3c
       0.015671777 -0.087824695 0.021350257

hidden_layers.0.weight f4 [6, 51]
000000 ee 12 03 3d 53 32 4c 3d 58 e4 ed 3d 21 f7 e2 bd
       0.032000475 0.04985268 0.11615819 -0.11082292
000010 3f a6 90 3e 41 e8 9f 3d 75 ce b4 3e f0 95 c4 bd
       0.28251836 0.07807971 0.35313764 -0.09598911
000020 24 fe 84 be 23 d0 97 3d 8e 42 6f be c1 eb ad bc
       -0.25975144 0.07412746 -0.23365232 -0.02123058
000030 9c cf a2 ba db f9 bd bd 6a c7 f5 bd 5c d6 df be
       -0.0012421492 -0.09276172 -0.12000926 -0.4371823
000040 d0 fc 93 bd 72 cf 02 3e 0c 36 62 be e7 82 29 3e
       -0.072259545 0.12774447 -0.2209093 0.16553842
000050 bd 46 09 3d 3a 4d 02 be 88 7d 82 3d 6b 5c 4c be
       0.033514727 -0.12724772 0.063715994 -0.1995713
000060 19 6a 3b 3d ec 0a 56 3d f4 65 25 3d 62 62 f0 be
       0.04575548 0.05225651 0.040380433 -0.4695006
000070 d1 a1 58 bd 8a 27 97 bc 3f 36 81 3e d1 9a 78 be
       -0.052888695 -0.01845147 0.252367 -0.24277808
000080 2d 01 d4 be 22 0b 13 3d 48 50 94 be 3e 8a 5f 3e
       -0.41407147 0.03589929 -0.289675 0.21830079
000090 52 98 ea 3d 12 00 60 3d 1f ea e3 bd e8 a0 2f bc
       0.11454834 0.054687567 -0.111286394 -0.010719515
0000a0 0c 37 d2 3b 11 9b 06 be 60 e6 79 3c 70 a3 7c be
       0.0064152535 -0.1314509 0.01525268 -0.24671721
0000b0 ce af c4 3d cd aa 7b bd 12 48 80 3d 53 b3 13 3c
       0.096038446 -0.061442185 0.06263746 0.009014922
0000c0 72 6b cc bd 2d 98 5d be b9 df 2d be 0e 3e a2 be
       -0.09981431 -0.21640082 -0.16979875 -0.3168797
0000d0 57 1f 93 3d 8c c8 01 3e c5 73 8d be c4 4d aa 3d
       0.07183712 0.12674159 -0.27627388 0.08315614
0000e0 27 58 ce 3e fe 09 33 bd 28 8f 18 3e 3e bb 78 bd
       0.4030163 -0.0437107 0.1489836 -0.060725443
0000f0 8a 5e 5b be 28 3d 41 be 06 9e 33 3e 23 e9 fb 3e
       -0.21422783 -0.18870986 0.1754075 0.49201307
000100 91 ce b2 3b d5 56 c3 bd 9f 10 ab bc 6a c1 ca 3d
       0.0054567535 -0.09538046 -0.020881949 0.09900172
000110 ab 1e 95 3c dd 02 76 3d cc 71 94 3e 38 ca 05 be
       0.0182031 0.060061324 0.2899307 -0.13065422
000120 c6 09 a6 be 69 00 a0 bd ad dd c5 bc 9f 7a 0b be
       -0.32429332 -0.07812578 -0.024153555 -0.13620995
000130 2c 27 f9 bd 85 25 bc 3d 44 7e bd bd 96 46 79 be
       -0.121656746 0.09186844 -0.09252599 -0.24343333
000140 71 db bb be bd 62 d6 be 0d e8 c1 3d e6 82 4c 3e
       -0.36690858 -0.41872206 0.09468088 0.19971809
000150 29 7b 18 3e a7 cd 43 bb 87 08 1c be 31 be 80 3d
       0.14890732 -0.0029877217 -0.15237628 0.06286276
000160 2f 0e 9f be 1d 20 17 be 2d f0 12 be ad 52 41 3d
       -0.3106551 -0.14758344 -0.14349432 0.047197986
000170 56 74 5f be 43 9c b8 bd a4 c4 b1 3d 7e 44 d7 bb
       -0.21821722 -0.090141796 0.08680084 -0.006569444
000180 1d d1 ed bd 06 c5 30 bd b0 a6 a3 3d 18 71 33 be
       -0.11612151 -0.043156646 0.079907775 -0.1752361
000190 ec 71 40 be 7b f8 1e 3e 02 86 11 3e 12 e7 2d 3d
       -0.18793458 0.15524475 0.14211276 0.042456694
0001a0 ff 99 83 be 85 bc bd 3d a8 f1 06 3d 44 73 8f bc
       -0.25703427 0.09264473 0.032945305 -0.017511018
0001b0 86 22 12 3d c9 1e 2b 3d 37 86 a9 bd 56 b2 7a ba
       0.035677455 0.041777406 -0.082775526 -0.0009563317
0001c0 f5 eb be 3e b7 fb 47 3d 57 13 dc bd e6 b0 8a 3d
       0.37289396 0.04882404 -0.10745876 0.06772022
0001d0 cc 2f 82 bc 78 04 fc be ed f2 6f be dd dc b4 be
       -0.015891932 -0.4922216 -0.23432513 -0.35324755
0001e0 8b 54 ff bd db f6 82 be 19 e2 f6 bd 1d f4 64 bd
       -0.12467297 -0.2557896 -0.120548435 -0.055896867
0001f0 bd 88 3e be 84 ab 94 be c8 2c f0 be d9 2f dd bd
       -0.18606849 -0.29037106 -0.46909165 -0.10800142
000200 af 2e e0 bd 3d 67 33 bd 73 c9 1b 3e 22 21 9d 3d
       -0.10946404 -0.043799628 0.15213566 0.07672335
000210 00 21 3e 3e a3 3f 1c 3d 2e fa 6c 3e 16 9f 8e bd
       0.18567276 0.038146626 0.23142311 -0.06963937
000220 78 38 4d be b5 c4 aa be b5 45 32 3e 51 ff 91 3e
       -0.20041072 -0.333532 0.17409404 0.28515103
000230 d9 d3 58 3e 96 06 e0 3e 61 26 c4 bd 8e 82 5e be
       0.21174563 0.43755025 -0.09577633 -0.2172949
000240 71 cd 54 3d 37 a7 be 3a ee 04 86 be be 3d 11 3d
       0.051953737 0.0014545684 -0.26175636 0.035459273
000250 41 4f 8a 3d e0 b0 0a be df 2d dc 3b 31 0d ed 3d
       0.06753398 -0.13544035 0.0067193354 0.11574782
000260 02 03 bf 3d 42 f9 25 be 98 09 6f 3d 5d 54 3a 3e
       0.093267456 -0.16208366 0.05835876 0.18196245
000270 bc 46 c4 3d 09 18 4a bd 16 ac f9 3e 45 bd 21 3e
       0.09583804 -0.049339328 0.48764104 0.15794857
000280 27 95 99 be 33 84 12 3e 79 88 6a 3d b8 01 c3 3d
       -0.29996607 0.14308242 0.057259057 0.09521812
000290 36 40 52 bd 74 06 88 be 18 3d be bc 8e 03 aa bb
       -0.051330768 -0.26567423 -0.023222491 -0.005188412
0002a0 7a 08 0e 3e 7e 26 d2 bc 20 8b f2 bc 02 20 a1 3d
       0.13870421 -0.02565312 -0.029607356 0.07867433
0002b0 09 9d 28 bd 69 a8 c5 be ea fe d8 bd d7 c7 84 3d
       -0.041165385 -0.3860505 -0.10595496 0.06483429
0002c0 2a e9 86 bd 7d 38 2f 3d 76 95 a4 be f0 e8 b2 bd
       -0.06587441 0.04277848 -0.3214528 -0.087358356
0002d0 6e 16 4d be 8d 58 f5 3d bf dd 91 3d 63 58 b5 bd
       -0.20028087 0.1197978 0.07122373 -0.08854749
0002e0 7a 47 af be 4d 7d 37 be 5b c9 97 be b1 a2 6f be
       -0.3423422 -0.17918892 -0.2964581 -0.23401906
0002f0 65 6a 90 be cd 5d 4a be d9 97 b6 3d 03 7c 2b 3e
       -0.28206173 -0.19762345 0.089156814 0.16746525
000300 7e 24 82 be 11 62 8e 3e d6 3f 78 bd 66 fc 8b be
       -0.25418466 0.27809194 -0.060607754 -0.27341002
000310 8a 9d ee bd 84 47 52 3e b6 ce c4 be f1 34 e9 3d
       -0.11651142 0.20535094 -0.38438958 0.11387051
000320 5c 56 e5 bd 54 31 41 be 9b 4d 5a bc e3 17 e9 3d
       -0.11198112 -0.18866473 -0.013324167 0.11381509
000330 26 1d 0a 3f c9 44 71 be ff 37 93 be f5 40 41 3d
       0.53950727 -0.23561396 -0.2875366 0.04718109
000340 8c c8 15 bc dc 53 47 be 84 ab 5f 3e 8f 7b c7 3d
       -0.009142052 -0.19465584 0.21842772 0.09740364
000350 68 db 01 bd 94 a2 82 bd 84 c6 43 3e 9e 35 b6 bd
       -0.031703383 -0.063786656 0.19118696 -0.088969454
000360 a6 7a c9 be 53 19 bf be ac ff 45 bd 55 eb f7 3e
       -0.39351386 -0.37324008 -0.04833953 0.48421732
000370 24 cb da bc 1d e3 5c be d7 af 27 3e f0 45 89 3e
       -0.026708193 -0.21571012 0.16375671 0.2681117
000380 b8 7c aa bd fb e9 e9 3d 2c e8 67 bd f3 6c 27 3e
       -0.083245695 0.11421581 -0.0566179 0.16350155
000390 be 99 ab bd e2 88 81 3e d8 57 7a bd c6 38 7f be
       -0.08378933 0.25299746 -0.06111893 -0.24924001
0003a0 dc a7 e5 3c 62 77 2e 3e 47 24 0a 3e f0 aa be 3e
       0.028034143 0.17037728 0.13490401 0.3723979
0003b0 04 59 05 be 09 9f ea bd 7a 5e 04 be 0f d2 83 be
       -0.13022238 -0.11456115 -0.12926665 -0.257462
0003c0 35 95 05 bd 13 3b a3 3c 39 6b 0a 3e 69 a8 12 3e
       -0.032612998 0.01992563 0.13517465 0.14322056
0003d0 14 62 93 bb 32 86 06 3e 3b c8 bb bc 00 0c 8a 3e
       -0.004497776 0.13137129 -0.022922626 0.2696228
0003e0 e4 05 89 bd 4f 9b 7d be 77 c3 91 be fc 51 55 3e
       -0.06690577 -0.24766277 -0.2846944 0.20832056
0003f0 95 5d 52 bc bd de 4e 3c 57 49 4d 3d 3f 66 8a 3c
       -0.0128396945 0.012626347 0.05011877 0.016894458

hidden_layers.0.bias f4 [6]
000000 57 9e 1a bd 4f 02 a1 bd 0b b9 32 be 50 82 3c be
       -0.03774866 -0.078617685 -0.17453401 -0.18409085
000010 80 18 8d 3d 35 41 d2 3c
       0.06889439 0.025665859

hidden_layers.1.weight f4 [7, 6]
000000 b3 a7 10 3f 68 4f 93 bf f3 5a 52 3e 3e b1 19 3f
       0.5650589 -1.1508608 0.20542507 0.60036075
000010 50 0d 39 be 14 ea e0 be 6b 11 11 3e 87 ff 4a 3f
       -0.18071485 -0.43928587 0.141668 0.79296154
000020 d8 74 f4 bd 37 12 f6 3e 60 97 81 3f f1 a5 48 bc
       -0.11936349 0.48060772 1.0124321 -0.012246595
000030 a7 90 c8 3e 95 aa 98 3e 99 cc 45 3e 44 72 08 bf
       0.3917286 0.29817644 0.19316329 -0.53299356
000040 ec 7b 88 be c5 30 99 bc 66 b9 64 3e 77 87 de 3e
       -0.26657045 -0.018700013 0.22336349 0.43462726
000050 f0 5e ac 3d 6f b3 c2 3f 9e d7 28 bf 43 93 80 3e
       0.084165454 1.5211009 -0.65954006 0.25112352
000060 1e 7f 36 3f 2f c0 2f bd ba e1 ec 3a bb ac ae 3e
       0.71287715 -0.04290789 0.0018072643 0.34116158
000070 fd 04 26 bf 17 8a aa 3e 17 62 ee be 3a bd d6 3e
       -0.6485136 0.3330848 -0.46559212 0.41941243
000080 9f b5 c7 3e b0 6e ab bf ce d0 df 3e 13 5a 36 3e
       0.39005753 -1.3393154 0.43713993 0.17807798
000090 1b 1e a6 be 12 85 95 3e 9d 3d 1b 3f 21 15 84 3e
       -0.32444844 0.29203087 0.6064089 0.2579737
0000a0 bf 3f e9 3e cd 6d d1 be
       0.45556447 -0.40904084

hidden_layers.1.bias f4 [7]
000000 18 9a fb 3d 93 6a 3c 3e a3 33 1f 3e 07 cd 39 be
       0.122852504 0.1840003 0.15547042 -0.18144618
000010 36 1b 80 be c1 eb 24 3e 20 f1 d9 3d
       -0.2502076 0.16105558 0.10641694

out.weight f4 [3, 7]
000000 9e 06 22 bf 1e 98 be 3e aa b2 e8 3c 07 12 21 be
       -0.6329135 0.3722543 0.028405506 -0.15729533
000010 b5 58 87 3d ed 70 f3 3e 71 6a 72 be dd fd 0e 3f
       0.066087164 0.47547093 -0.23673417 0.55856115
000020 72 9c 94 3d 9c d5 21 3f 50 e7 00 bf 83 3b ce 3e
       0.07256402 0.6321657 -0.50352955 0.4027978
000030 da 38 4e 3f c0 f3 0b bf 4d f8 3a 3f c6 05 27 3e
       0.805555 -0.5466881 0.73035127 0.16310796
000040 26 ea 0c 3f 69 1e 22 3f 75 1d 89 3e 89 ec 0f 3e
       0.5504478 0.6332765 0.26780286 0.14055075
000050 d3 d7 37 3f
       0.71813697

out.bias f4 [3]
000000 38 75 26 be 48 d0 bf 3e ff 27 8f be
       -0.16255653 0.37463593 -0.27960202
